…
odels/code_sum/unixcoder/partial_freezing/python/freeze_bottom_8_layers/20221019004555', seed=123456, test_filename='dataset/python/test.jsonl', train_batch_size=32, train_filename='dataset/python/train.jsonl', weight_decay=0.0)
10/19/2022 00:46:20 - INFO - __main__ -   +------------------------------------------------------------+--------------+---------+
| Layer Name                                                 | Output Shape | Param # |
+------------------------------------------------------------+--------------+---------+
| encoder.encoder.layer.8.attention.self.query.weight        |   [768, 768] |  589824 |
| encoder.encoder.layer.8.attention.self.query.bias          |        [768] |     768 |
| encoder.encoder.layer.8.attention.self.key.weight          |   [768, 768] |  589824 |
| encoder.encoder.layer.8.attention.self.key.bias            |        [768] |     768 |
| encoder.encoder.layer.8.attention.self.value.weight        |   [768, 768] |  589824 |
| encoder.encoder.layer.8.attention.self.value.bias          |        [768] |     768 |
| encoder.encoder.layer.8.attention.output.dense.weight      |   [768, 768] |  589824 |
| encoder.encoder.layer.8.attention.output.dense.bias        |        [768] |     768 |
| encoder.encoder.layer.8.attention.output.LayerNorm.weight  |        [768] |     768 |
| encoder.encoder.layer.8.attention.output.LayerNorm.bias    |        [768] |     768 |
| encoder.encoder.layer.8.intermediate.dense.weight          |  [3072, 768] | 2359296 |
| encoder.encoder.layer.8.intermediate.dense.bias            |       [3072] |    3072 |
| encoder.encoder.layer.8.output.dense.weight                |  [768, 3072] | 2359296 |
| encoder.encoder.layer.8.output.dense.bias                  |        [768] |     768 |
| encoder.encoder.layer.8.output.LayerNorm.weight            |        [768] |     768 |
| encoder.encoder.layer.8.output.LayerNorm.bias              |        [768] |     768 |
| encoder.encoder.layer.9.attention.self.query.weight        |   [768, 768] |  589824 |
| encoder.encoder.layer.9.attention.self.query.bias          |        [768] |     768 |
| encoder.encoder.layer.9.attention.self.key.weight          |   [768, 768] |  589824 |
| encoder.encoder.layer.9.attention.self.key.bias            |        [768] |     768 |
| encoder.encoder.layer.9.attention.self.value.weight        |   [768, 768] |  589824 |
| encoder.encoder.layer.9.attention.self.value.bias          |        [768] |     768 |
| encoder.encoder.layer.9.attention.output.dense.weight      |   [768, 768] |  589824 |
| encoder.encoder.layer.9.attention.output.dense.bias        |        [768] |     768 |
| encoder.encoder.layer.9.attention.output.LayerNorm.weight  |        [768] |     768 |
| encoder.encoder.layer.9.attention.output.LayerNorm.bias    |        [768] |     768 |
| encoder.encoder.layer.9.intermediate.dense.weight          |  [3072, 768] | 2359296 |
| encoder.encoder.layer.9.intermediate.dense.bias            |       [3072] |    3072 |
| encoder.encoder.layer.9.output.dense.weight                |  [768, 3072] | 2359296 |
| encoder.encoder.layer.9.output.dense.bias                  |        [768] |     768 |
| encoder.encoder.layer.9.output.LayerNorm.weight            |        [768] |     768 |
| encoder.encoder.layer.9.output.LayerNorm.bias              |        [768] |     768 |
| encoder.encoder.layer.10.attention.self.query.weight       |   [768, 768] |  589824 |
| encoder.encoder.layer.10.attention.self.query.bias         |        [768] |     768 |
| encoder.encoder.layer.10.attention.self.key.weight         |   [768, 768] |  589824 |
| encoder.encoder.layer.10.attention.self.key.bias           |        [768] |     768 |
| encoder.encoder.layer.10.attention.self.value.weight       |   [768, 768] |  589824 |
| encoder.encoder.layer.10.attention.self.value.bias         |        [768] |     768 |
| encoder.encoder.layer.10.attention.output.dense.weight     |   [768, 768] |  589824 |
| encoder.encoder.layer.10.attention.output.dense.bias       |        [768] |     768 |
| encoder.encoder.layer.10.attention.output.LayerNorm.weight |        [768] |     768 |
| encoder.encoder.layer.10.attention.output.LayerNorm.bias   |        [768] |     768 |
| encoder.encoder.layer.10.intermediate.dense.weight         |  [3072, 768] | 2359296 |
| encoder.encoder.layer.10.intermediate.dense.bias           |       [3072] |    3072 |
| encoder.encoder.layer.10.output.dense.weight               |  [768, 3072] | 2359296 |
| encoder.encoder.layer.10.output.dense.bias                 |        [768] |     768 |
| encoder.encoder.layer.10.output.LayerNorm.weight           |        [768] |     768 |
| encoder.encoder.layer.10.output.LayerNorm.bias             |        [768] |     768 |
| encoder.encoder.layer.11.attention.self.query.weight       |   [768, 768] |  589824 |
| encoder.encoder.layer.11.attention.self.query.bias         |        [768] |     768 |
| encoder.encoder.layer.11.attention.self.key.weight         |   [768, 768] |  589824 |
| encoder.encoder.layer.11.attention.self.key.bias           |        [768] |     768 |
| encoder.encoder.layer.11.attention.self.value.weight       |   [768, 768] |  589824 |
| encoder.encoder.layer.11.attention.self.value.bias         |        [768] |     768 |
| encoder.encoder.layer.11.attention.output.dense.weight     |   [768, 768] |  589824 |
| encoder.encoder.layer.11.attention.output.dense.bias       |        [768] |     768 |
| encoder.encoder.layer.11.attention.output.LayerNorm.weight |        [768] |     768 |
| encoder.encoder.layer.11.attention.output.LayerNorm.bias   |        [768] |     768 |
| encoder.encoder.layer.11.intermediate.dense.weight         |  [3072, 768] | 2359296 |
| encoder.encoder.layer.11.intermediate.dense.bias           |       [3072] |    3072 |
| encoder.encoder.layer.11.output.dense.weight               |  [768, 3072] | 2359296 |
| encoder.encoder.layer.11.output.dense.bias                 |        [768] |     768 |
| encoder.encoder.layer.11.output.LayerNorm.weight           |        [768] |     768 |
| encoder.encoder.layer.11.output.LayerNorm.bias             |        [768] |     768 |
| encoder.pooler.dense.weight                                |   [768, 768] |  589824 |
| encoder.pooler.dense.bias                                  |        [768] |     768 |
| dense.weight                                               |   [768, 768] |  589824 |
| dense.bias                                                 |        [768] |     768 |
+------------------------------------------------------------+--------------+---------+
10/19/2022 00:46:20 - INFO - __main__ -   The model has 29532672 trainable parameters
10/19/2022 00:46:31 - INFO - __main__ -   *** Example ***
10/19/2022 00:46:31 - INFO - __main__ -   idx: 0
10/19/2022 00:46:31 - INFO -
…
