…
partial_freezing/ruby/freeze_bottom_3_layers/20221009070312', seed=123456, test_data_file='dataset/CSN/ruby/test.jsonl', tokenizer_name='', train_batch_size=128, train_data_file='dataset/CSN/ruby/train.jsonl', weight_decay=0.01)
10/09/2022 07:03:30 - INFO - __main__ -   +------------------------------------------------------------+--------------+---------+
| Layer Name                                                 | Output Shape | Param # |
+------------------------------------------------------------+--------------+---------+
| encoder.encoder.layer.3.attention.self.query.weight        |   [768, 768] |  589824 |
| encoder.encoder.layer.3.attention.self.query.bias          |        [768] |     768 |
| encoder.encoder.layer.3.attention.self.key.weight          |   [768, 768] |  589824 |
| encoder.encoder.layer.3.attention.self.key.bias            |        [768] |     768 |
| encoder.encoder.layer.3.attention.self.value.weight        |   [768, 768] |  589824 |
| encoder.encoder.layer.3.attention.self.value.bias          |        [768] |     768 |
| encoder.encoder.layer.3.attention.output.dense.weight      |   [768, 768] |  589824 |
| encoder.encoder.layer.3.attention.output.dense.bias        |        [768] |     768 |
| encoder.encoder.layer.3.attention.output.LayerNorm.weight  |        [768] |     768 |
| encoder.encoder.layer.3.attention.output.LayerNorm.bias    |        [768] |     768 |
| encoder.encoder.layer.3.intermediate.dense.weight          |  [3072, 768] | 2359296 |
| encoder.encoder.layer.3.intermediate.dense.bias            |       [3072] |    3072 |
| encoder.encoder.layer.3.output.dense.weight                |  [768, 3072] | 2359296 |
| encoder.encoder.layer.3.output.dense.bias                  |        [768] |     768 |
| encoder.encoder.layer.3.output.LayerNorm.weight            |        [768] |     768 |
| encoder.encoder.layer.3.output.LayerNorm.bias              |        [768] |     768 |
| encoder.encoder.layer.4.attention.self.query.weight        |   [768, 768] |  589824 |
| encoder.encoder.layer.4.attention.self.query.bias          |        [768] |     768 |
| encoder.encoder.layer.4.attention.self.key.weight          |   [768, 768] |  589824 |
| encoder.encoder.layer.4.attention.self.key.bias            |        [768] |     768 |
| encoder.encoder.layer.4.attention.self.value.weight        |   [768, 768] |  589824 |
| encoder.encoder.layer.4.attention.self.value.bias          |        [768] |     768 |
| encoder.encoder.layer.4.attention.output.dense.weight      |   [768, 768] |  589824 |
| encoder.encoder.layer.4.attention.output.dense.bias        |        [768] |     768 |
| encoder.encoder.layer.4.attention.output.LayerNorm.weight  |        [768] |     768 |
| encoder.encoder.layer.4.attention.output.LayerNorm.bias    |        [768] |     768 |
| encoder.encoder.layer.4.intermediate.dense.weight          |  [3072, 768] | 2359296 |
| encoder.encoder.layer.4.intermediate.dense.bias            |       [3072] |    3072 |
| encoder.encoder.layer.4.output.dense.weight                |  [768, 3072] | 2359296 |
| encoder.encoder.layer.4.output.dense.bias                  |        [768] |     768 |
| encoder.encoder.layer.4.output.LayerNorm.weight            |        [768] |     768 |
| encoder.encoder.layer.4.output.LayerNorm.bias              |        [768] |     768 |
| encoder.encoder.layer.5.attention.self.query.weight        |   [768, 768] |  589824 |
| encoder.encoder.layer.5.attention.self.query.bias          |        [768] |     768 |
| encoder.encoder.layer.5.attention.self.key.weight          |   [768, 768] |  589824 |
| encoder.encoder.layer.5.attention.self.key.bias            |        [768] |     768 |
| encoder.encoder.layer.5.attention.self.value.weight        |   [768, 768] |  589824 |
| encoder.encoder.layer.5.attention.self.value.bias          |        [768] |     768 |
| encoder.encoder.layer.5.attention.output.dense.weight      |   [768, 768] |  589824 |
| encoder.encoder.layer.5.attention.output.dense.bias        |        [768] |     768 |
| encoder.encoder.layer.5.attention.output.LayerNorm.weight  |        [768] |     768 |
| encoder.encoder.layer.5.attention.output.LayerNorm.bias    |        [768] |     768 |
| encoder.encoder.layer.5.intermediate.dense.weight          |  [3072, 768] | 2359296 |
| encoder.encoder.layer.5.intermediate.dense.bias            |       [3072] |    3072 |
| encoder.encoder.layer.5.output.dense.weight                |  [768, 3072] | 2359296 |
| encoder.encoder.layer.5.output.dense.bias                  |        [768] |     768 |
| encoder.encoder.layer.5.output.LayerNorm.weight            |        [768] |     768 |
| encoder.encoder.layer.5.output.LayerNorm.bias              |        [768] |     768 |
| encoder.encoder.layer.6.attention.self.query.weight        |   [768, 768] |  589824 |
| encoder.encoder.layer.6.attention.self.query.bias          |        [768] |     768 |
| encoder.encoder.layer.6.attention.self.key.weight          |   [768, 768] |  589824 |
| encoder.encoder.layer.6.attention.self.key.bias            |        [768] |     768 |
| encoder.encoder.layer.6.attention.self.value.weight        |   [768, 768] |  589824 |
| encoder.encoder.layer.6.attention.self.value.bias          |        [768] |     768 |
| encoder.encoder.layer.6.attention.output.dense.weight      |   [768, 768] |  589824 |
| encoder.encoder.layer.6.attention.output.dense.bias        |        [768] |     768 |
| encoder.encoder.layer.6.attention.output.LayerNorm.weight  |        [768] |     768 |
| encoder.encoder.layer.6.attention.output.LayerNorm.bias    |        [768] |     768 |
| encoder.encoder.layer.6.intermediate.dense.weight          |  [3072, 768] | 2359296 |
| encoder.encoder.layer.6.intermediate.dense.bias            |       [3072] |    3072 |
| encoder.encoder.layer.6.output.dense.weight                |  [768, 3072] | 2359296 |
| encoder.encoder.layer.6.output.dense.bias                  |        [768] |     768 |
| encoder.encoder.layer.6.output.LayerNorm.weight            |        [768] |     768 |
| encoder.encoder.layer.6.output.LayerNorm.bias              |        [768] |     768 |
| encoder.encoder.layer.7.attention.self.query.weight        |   [768, 768] |  589824 |
| encoder.encoder.layer.7.attention.self.query.bias          |        [768] |     768 |
| encoder.encoder.layer.7.attention.self.key.weight          |   [768, 768] |  589824 |
| encoder.encoder.layer.7.attention.self.key.bias            |        [768] |     768 |
| encoder.encoder.layer.7.attention.self.value.weight        |   [768, 768] |  589824 |
| encoder.encoder.layer.7.attention.self.value.bias          |        [768] |     768 |
| encoder.encoder.layer.7.attention.output.dense.weight      |   [768, 768] |  589824 |
| encoder.encoder.layer.7.attention.output.dense.bias        |        [768] |     768 |
| encoder.encoder.layer.7.attention.output.LayerNorm.weight  |        [768] |     768 |
| encoder.encoder.layer.7.attention.output.LayerNorm.bias    |        [768] |     768 |
| encoder.encoder.layer.7.intermediate.dense.weight          |  [3072, 768] | 2359296 |
| encoder.encoder.layer.7.intermediate.dense.bias            |       [3072] |    3072 |
| encoder.encoder.layer.7.output.dense.weight                |  [768, 3072] | 2359296 |
| encoder.encoder.layer.7.output.dense.bias                  |        [768] |     768 |
| encoder.encoder.layer.7.output.LayerNorm.weight            |        [768] |     768 |
| encoder.encoder.layer.7.output.LayerNorm.bias              |        [768] |     768 |
| encoder.encoder.layer.8.attention.self.query.weight        |   [768, 768] |  589824 |
| encoder.encoder.layer.8.attention.self.query.bias          |        [768] |     768 |
| encoder.encoder.layer.8.attention.self.key.weight          |   [768, 768] |  589824 |
| encoder.encoder.layer.8.attention.self.key.bias            |        [768] |     768 |
| encoder.encoder.layer.8.attention.self.value.weight        |   [768, 768] |  589824 |
| encoder.encoder.layer.8.attention.self.value.bias          |        [768] |     768 |
| encoder.encoder.layer.8.attention.output.dense.weight      |   [768, 768] |  589824 |
| encoder.encoder.layer.8.attention.output.dense.bias        |        [768] |     768 |
| encoder.encoder.layer.8.attention.output.LayerNorm.weight  |        [768] |     768 |
| encoder.encoder.layer.8.attention.output.LayerNorm.bias    |        [768] |     768 |
| encoder.encoder.layer.8.intermediate.dense.weight          |  [3072, 768] | 2359296 |
| encoder.encoder.layer.8.intermediate.dense.bias            |       [3072] |    3072 |
| encoder.encoder.layer.8.output.dense.weight                |  [768, 3072] | 2359296 |
| encoder.encoder.layer.8.output.dense.bias                  |        [768] |     768 |
| encoder.encoder.layer.8.output.LayerNorm.weight            |        [768] |     768 |
| encoder.encoder.layer.8.output.LayerNorm.bias              |        [768] |     768 |
| encoder.encoder.layer.9.attention.self.query.weight        |   [768, 768] |  589824 |
| encoder.encoder.layer.9.attention.self.query.bias          |        [768] |     768 |
| encoder.encoder.layer.9.attention.self.key.weight          |   [768, 768] |  589824 |
| encoder.encoder.layer.9.attention.self.key.bias            |        [768] |     768 |
| encoder.encoder.layer.9.attention.self.value.weight        |   [768, 768] |  589824 |
| encoder.encoder.layer.9.attention.self.value.bias          |        [768] |     768 |
| encoder.encoder.layer.9.attention.output.dense.weight      |   [768, 768] |  589824 |
| encoder.encoder.layer.9.attention.output.dense.bias        |        [768] |     768 |
| encoder.encoder.layer.9.attention.output.LayerNorm.weight  |        [768] |     768 |
| encoder.encoder.layer.9.attention.output.LayerNorm.bias    |        [768] |     768 |
| encoder.encoder.layer.9.intermediate.dense.weight          |  [3072, 768] | 2359296 |
| encoder.encoder.layer.9.intermediate.dense.bias            |       [3072] |    3072 |
| encoder.encoder.layer.9.output.dense.weight                |  [768, 3072] | 2359296 |
| encoder.encoder.layer.9.output.dense.bias                  |        [768] |     768 |
| encoder.encoder.layer.9.output.LayerNorm.weight            |        [768] |     768 |
| encoder.encoder.layer.9.output.LayerNorm.bias              |        [768] |     768 |
| encoder.encoder.layer.10.attention.self.query.weight       |   [768, 768] |  589824 |
| encoder.encoder.layer.10.attention.self.query.bias         |        [768] |     768 |
| encoder.encoder.layer.10.attention.self.key.weight         |   [768, 768] |  589824 |
| encoder.encoder.layer.10.attention.self.key.bias           |        [768] |     768 |
| encoder.encoder.layer.10.attention.self.value.weight       |   [768, 768] |  589824 |
| encoder.encoder.layer.10.attention.self.value.bias         |        [768] |     768 |
| encoder.encoder.layer.10.attention.output.dense.weight     |   [768, 768] |  589824 |
| encoder.encoder.layer.10.attention.output.dense.bias       |        [768] |     768 |
| encoder.encoder.layer.10.attention.output.LayerNorm.weight |        [768] |     768 |
| encoder.encoder.layer.10.attention.output.LayerNorm.bias   |        [768] |     768 |
| encoder.encoder.layer.10.intermediate.dense.weight         |  [3072, 768] | 2359296 |
| encoder.encoder.layer.10.intermediate.dense.bias           |       [3072] |    3072 |
| encoder.encoder.layer.10.output.dense.weight               |  [768, 3072] | 2359296 |
| encoder.encoder.layer.10.output.dense.bias                 |        [768] |     768 |
| encoder.encoder.layer.10.output.LayerNorm.weight           |        [768] |     768 |
| encoder.encoder.layer.10.output.LayerNorm.bias             |        [768] |     768 |
| encoder.encoder.layer.11.attention.self.query.weight       |   [768, 768] |  589824 |
| encoder.encoder.layer.11.attention.self.query.bias         |        [768] |     768 |
| encoder.encoder.layer.11.attention.self.key.weight         |   [768, 768] |  589824 |
| encoder.encoder.layer.11.attention.self.key.bias           |        [768] |     768 |
| encoder.encoder.layer.11.attention.self.value.weight       |   [768, 768] |  589824 |
| encoder.encoder.layer.11.attention.self.value.bias         |        [768] |     768 |
| encoder.encoder.layer.11.attention.output.dense.weight     |   [768, 768] |  589824 |
| encoder.encoder.layer.11.attention.output.dense.bias       |        [768] |     768 |
| encoder.encoder.layer.11.attention.output.LayerNorm.weight |        [768] |     768 |
| encoder.encoder.layer.11.attention.output.LayerNorm.bias   |        [768] |     768 |
| encoder.encoder.layer.11.intermediate.dense.weight         |  [3072, 768] | 2359296 |
| encoder.encoder.layer.11.intermediate.dense.bias           |       [3072] |    3072 |
| encoder.encoder.layer.11.output.dense.weight               |  [768, 3072] | 2359296 |
| encoder.encoder.layer.11.output.dense.bias                 |        [768] |     768 |
| encoder.encoder.layer.11.output.LayerNorm.weight           |        [768] |     768 |
| encoder.encoder.layer.11.output.LayerNorm.bias             |        [768] |     768 |
| encoder.pooler.dense.weight                                |   [768, 768] |  589824 |
| encoder.pooler.dense.bias                                  |        [768] |     768 |
+------------------------------------------------------------+--------------+---------+
10/09/2022 07:03:48 - INFO - __main__ -   *** Example ***
10/09/2022 07:03:48 - INFO - __main__ -   idx: 0
10/09/2022 07:03:48 - INFO - __main__ -   code_tokens: ['<s>', '<encoder-only>', '</s>', 'def', '_render', '_', 'b
…
